models/Intensity_branch.pth (torch, 684958 bytes, 30 tensors)

Depthconv.weight f4 [32, 1, 7, 1, 1]
0	0x3e42edc9	0.1903602
1	0xbe91bf15	-0.28466097
2	0x3e446881	0.1918049
3	0x3dd6084d	0.10450802
4	0x3ea3bf88	0.31982064
5	0xbddac80d	-0.10682688
6	0xbc2f03aa	-0.010682026
7	0x3d0d290e	0.03446298
8	0x3d365fef	0.044525083
9	0x3e1deb4d	0.15421791
10	0xbdfb0166	-0.12256126
11	0x3e818d9b	0.2530335
12	0x3dfdf103	0.12399485
13	0xbe0bae57	-0.13640724
14	0x3e625767	0.22103654
15	0xbe9005bc	-0.28129375
16	0x3c08a551	0.008340196
17	0x3e0a293d	0.13492294
18	0x3e9cec28	0.30648923
19	0x3e06a81b	0.13150065
20	0x3e0d8078	0.13818538
21	0x3d9c3b96	0.076285526
22	0xbe535196	-0.20636591
23	0x3e2f75f1	0.17134835
24	0xbe419866	-0.18905792
25	0xbe0d84b5	-0.13820155
26	0xbe758f8a	-0.23980537
27	0xbca9063d	-0.020632857
28	0x3e80888f	0.25104186
29	0x3bfdd9f7	0.0077469307
30	0x3eb7839b	0.35842595
31	0x3e97e497	0.29666588
32	0x3e3f38f8	0.18674076
33	0x3eb5a562	0.3547774
34	0x3e281214	0.16413146
35	0xbe111a99	-0.14170302
36	0x3d35863c	0.04431747
37	0x3df0f83f	0.11766099
38	0xbeb7866b	-0.3584474
39	0x3dd498d9	0.10380716
40	0xbea3d812	-0.32000786
41	0x3e95e0f5	0.2927319
42	0x3eb4119b	0.35169682
43	0xbe95bce6	-0.2924568
44	0xbe2d518b	-0.16925637
45	0x3c1f7e1a	0.009734655
46	0x3d98ca2d	0.07460437
47	0xbebcc36a	-0.3686784
48	0x3e84178f	0.25799224
49	0x3e87f001	0.26550296
50	0x3eab21f1	0.33424333
51	0x3d4d2518	0.050084203
52	0x3d876601	0.066112526
53	0x3e176396	0.14784083
54	0x3e46c507	0.19411097
55	0xbbe7ccd6	-0.007073979
56	0xbe759d64	-0.23985821
57	0xbdef85f2	-0.1169547
58	0xbdfab713	-0.1224195
59	0xbdd6affb	-0.10482784
60	0xbd85c814	-0.065323025
61	0x3ce73d01	0.028227331
62	0x3eb0452c	0.34427774
63	0xbe454f36	-0.19268498
64	0x3e1a66d0	0.15078282
65	0xbe949f08	-0.2902758
66	0xbeaf04d8	-0.34183383
67	0xbeb1082a	-0.3457654
68	0x3e5919be	0.21201226
69	0xbd911b08	-0.07085234
70	0xbe6bb506	-0.23018274
71	0x3ca8b2af	0.020593015
72	0x3db5e9ae	0.088824615
73	0x3ea91a06	0.33027667
74	0xbd327f99	-0.043578718
75	0x3dd8d185	0.10586838
76	0x3e9afa27	0.30268976
77	0x3e5fd4a7	0.21858464
78	0x3cea2f1a	0.028586913
79	0x3e7a3cf1	0.2443731
80	0xbe86848e	-0.26273006
81	0x3cdee21e	0.02720743
82	0xbdb54fe9	-0.08853132
83	0x3e5961fb	0.21228783
84	0xbc886df7	-0.016653998
85	0x3dff7718	0.12473887
86	0xbe379de0	-0.17931318
87	0xbc2ee93b	-0.010675724
88	0x3d65a472	0.05606503
89	0x3e2f4d81	0.17119409
90	0xbe77dd06	-0.24205408
91	0x3cfead72	0.031088565
92	0x3e82ad79	0.25522974
93	0xbde3a5b5	-0.111155905
94	0x3df8a585	0.12140945
95	0x3a911d11	0.0011071285
96	0xbcdd072e	-0.026980963
97	0x3d16ed95	0.03684767
98	0x3e3a01d3	0.18164758
99	0x3ea54313	0.32277736
100	0x3e8929b4	0.2678963
101	0xbe08ba88	-0.13352406
102	0x3cd77115	0.026299039
103	0x3d19e89a	0.03757534
104	0xbd8cdde7	-0.06878262
105	0x3cb8c12c	0.022553049
106	0x3e823059	0.2542751
107	0xbe13a897	-0.1441978
108	0xbe40143b	-0.18757717
109	0x3e591ff2	0.21203592
110	0xbda76e12	-0.08175291
111	0xba5917a1	-0.0008281414
112	0xbdead787	-0.1146689
113	0x3e367dbe	0.17821404
114	0x3c921938	0.01783429
115	0x3e90dc09	0.28292874
116	0x3e9c931f	0.30580994
117	0xbe773267	-0.2414032
118	0x3e040007	0.12890635
119	0x3eaa88bf	0.33307454
120	0x3df7cd16	0.12099664
121	0xbe2c88c8	-0.16849053
122	0x3e6983a2	0.2280412
123	0x3c674cb3	0.014117408
124	0xbe961cee	-0.29318947
125	0x3c26161b	0.010137106
126	0x3e49d56e	0.19710323
127	0x3ea179f0	0.31538343
128	0xbe9403ab	-0.28909048
129	0xbe550dfb	-0.20806114
130	0xbe9c36db	-0.305106
131	0xbe5c09d0	-0.21488118
132	0x3eb15075	0.34631696
133	0xbe1088f6	-0.14114746
134	0x3d8b0376	0.067877695
135	0xbdef150b	-0.116739355
136	0x3e9058ac	0.2819265
137	0xbc43237e	-0.0119103175
138	0x3e0469eb	0.1293103
139	0xbd0c3dea	-0.034238733
140	0xbdc49118	-0.09597987
141	0xbe99abca	-0.30013877
142	0xbe9b791c	-0.30365837
143	0xbda51f73	-0.08062639
144	0x3db424c3	0.08796074
145	0xbd94dc45	-0.072685756
146	0x3e28f304	0.16498953
147	0x3d71a9b1	0.05899972
148	0x3d208716	0.039191328
149	0xbdd06ef3	-0.10177412
150	0x3e991c80	0.29904556
151	0x3e965b50	0.2936654
152	0xbebb4e86	-0.36583346
153	0xbec0d17d	-0.37659827
154	0x3e20b2c7	0.15693198
155	0x3dbd233b	0.09235235
156	0xbe552666	-0.20815429
157	0xbe5b1e53	-0.21398287
158	0x3dfec2d1	0.12439502
159	0x3d6ca3c2	0.05777336
160	0xbd652aeb	-0.055949133
161	0xbd882d45	-0.066492595
162	0xbd238128	-0.039918095
163	0xbebc9536	-0.3683259
164	0xbea0d20f	-0.31410262
165	0xbe0d357d	-0.13789935
166	0xbe6d82d9	-0.23194446
167	0xbe2db0fb	-0.16962044
168	0xbe91f64b	-0.2850822
169	0xbdf428c0	-0.11921835
170	0x3e7f8a87	0.24955188
171	0xbeb834f5	-0.35977903
172	0xbe9c216b	-0.30494246
173	0x3e3a69c0	0.18204403
174	0xbde5424e	-0.11194287
175	0x3cd63134	0.026146509
176	0x3e020843	0.12698464
177	0x3da3f1dd	0.08005116
178	0x3e8123d0	0.25222635
179	0xbd884523	-0.06653812
180	0xbe952443	-0.29129228
181	0xbd1ad5d6	-0.037801586
182	0xbd97c4ce	-0.074105844
183	0xbe882194	-0.26588118
184	0x3d3317b8	0.04372379
185	0xbeb3ba8c	-0.3510326
186	0x3e8ee81e	0.27911466
187	0x3c724801	0.014787675
188	0xbc44ec14	-0.012019176
189	0x3e5d9998	0.21640623
190	0x3e04ba77	0.12961756
191	0xbeac3202	-0.33631903
192	0x3ea52c1f	0.32260224
193	0x3eb00bf2	0.34384114
194	0x3c9fa459	0.019487547
195	0xbddba017	-0.10723894
196	0xbe80ec55	-0.25180307
197	0x3e82935f	0.2550306
198	0x3db1191f	0.086473696
199	0x3ea9424a	0.33058387
200	0x3ea83d36	0.328592
201	0xbe87274d	-0.26397172
202	0x3de3c46c	0.11121449
203	0xbe95e6c4	-0.29277623
204	0xbe254247	-0.16138564
205	0x3d2783ea	0.040897287
206	0xbea80ce7	-0.32822344
207	0x3dfb09e7	0.12257748
208	0xbe0083e9	-0.1255032
209	0x3de1a3ad	0.11017547
210	0x3e1b4cf7	0.15166079
211	0x3e517c1b	0.20457499
212	0x3ea2e535	0.31815496
213	0xbe197b0b	-0.14988343
214	0x3e314810	0.17312646
215	0x3e5092c4	0.20368487
216	0x3e6fc4ea	0.2341496
217	0x3ea33a9a	0.31880647
218	0xbdd1b6c5	-0.10239939
219	0x3d22f6a9	0.039786015
220	0x3df73b08	0.12071806
221	0xbe026082	-0.12732127
222	0x3db8d0f2	0.09024228
223	0xbeaf9c0d	-0.34298745

Depthconv.bias f4 [32]
0	0xbe1e397e	-0.15451619
1	0x3dca812d	0.098879196
2	0xbe69f03a	-0.22845545
3	0xbeb452d4	-0.35219443
4	0xbe8af9f1	-0.27143815
5	0x3e61ef59	0.2206396
6	0xbe995951	-0.29950956
7	0xbe94ccde	-0.2906255
8	0xbe100b48	-0.14066803
9	0x3eb72f6b	0.35778365
10	0x3e9cb3d8	0.3060596
11	0x3affd095	0.0019517118
12	0x3e9bfcaa	0.30466205
13	0xbdc58f4a	-0.09646471
14	0xbbbad491	-0.0057016094
15	0x3e47dd29	0.1951796
16	0x3ebb054c	0.3652748
17	0x3dc5b016	0.09652726
18	0xbe986c60	-0.29770184
19	0xbda9118f	-0.08255302
20	0xbe7ead2a	-0.24870744
21	0x3e7fd300	0.24982834
22	0x3dcbcbc9	0.09950978
23	0xbeaae3b7	-0.33376858
24	0xbe83519c	-0.256482
25	0xbe86963f	-0.26286504
26	0xbeb02bdd	-0.34408465
27	0x3cf78073	0.030212617
28	0x3e312e96	0.17302927
29	0x3e25d2a4	0.16193634
30	0x3dfc604e	0.12323056
31	0xbeba6a80	-0.36409378

Depthconv1.weight f4 [1, 32, 1, 1, 1]
0	0x3d0fa890	0.035072863
1	0xbdc8a631	-0.097973235
2	0x3d3c93e2	0.04603947
3	0x3dfd28fb	0.12361332
4	0xbc48739d	-0.012234596
5	0xbdca7c3a	-0.098869756
6	0x3d46eab6	0.04856368
7	0xbc89e796	-0.016834062
8	0xbd5b7cf9	-0.05358598
9	0x3e025e9c	0.12731403
10	0x3e2448f2	0.16043451
11	0xba8f7931	-0.0010946152
12	0xbde8fd6d	-0.11376462
13	0x3dadbabd	0.08482883
14	0x3dea9d9a	0.11455841
15	0x3e1872a1	0.14887477
16	0xbd504aef	-0.050852712
17	0xbdd4ed4f	-0.103968255
18	0x3e12099b	0.14261477
19	0xbda495c4	-0.08036378
20	0x3d4e25d6	0.050329052
21	0xbe2794e3	-0.1636539
22	0x3e220433	0.15821914
23	0x3dd4cb95	0.10390393
24	0xbd9051bc	-0.070468396
25	0x3c9059bd	0.017620916
26	0x3e06401b	0.13110392
27	0x3d56bf21	0.05242837
28	0xbdb889ba	-0.09010644
29	0x3e34a0fa	0.17639533
30	0x3d66c5d9	0.056341026
31	0x3e22e05d	0.159059

Depthconv2.weight f4 [32, 1, 1, 1, 1]
0	0x3eaeb26e	0.34120506
1	0x3ef144f4	0.4712292
2	0x3e2522f4	0.16126615
3	0x3f681cc0	0.9066887
4	0xbd48f280	-0.04905939
5	0xbf4a92cc	-0.79130244
6	0x3e828ea3	0.25499448
7	0x3e9533e3	0.2914115
8	0x3e6d41e2	0.23169664
9	0xbf2c6031	-0.67334276
10	0x3f0d3eb5	0.5517381
11	0x3f7cb37a	0.9871136
12	0xbf076ba0	-0.528986
13	0x3f70e0e5	0.9409316
14	0xbe3ac9c2	-0.18241027
15	0xbf70ab82	-0.940117
16	0x3eb03bb9	0.34420565
17	0xbee8aa23	-0.45442304
18	0x3dee9ef3	0.11651411
19	0xbe68d6d8	-0.22738206
20	0xbf348004	-0.70507836
21	0xbf5e6b2c	-0.8688228
22	0x3dc41e49	0.09576089
23	0xbf197664	-0.59946275
24	0xbed9c1d1	-0.42530683
25	0x3f2225c4	0.63338876
26	0x3ebf7866	0.37396544
27	0x3f10b2de	0.5652293
28	0xbe7d6308	-0.24744809
29	0xbca46e9a	-0.02007227
30	0x3f7b0e60	0.9806881
31	0x3f77c0a9	0.9677835

Depthconv2.bias f4 [32]
0	0x3f2ae174	0.66750264
1	0xbf62e7a3	-0.886347
2	0xbf0bf025	-0.54663306
3	0xbf1a3bf3	-0.60247725
4	0xbeabd8d0	-0.33563852
5	0x3f2b691a	0.6695725
6	0xbf0b98fb	-0.54530305
7	0x3cab816f	0.020935742
8	0xbf7d376c	-0.9891269
9	0x3d190d14	0.037365988
10	0x3ec61129	0.38684967
11	0xbd15d86a	-0.03658334
12	0x3e9ff7d2	0.3124376
13	0x3e2acee9	0.16680492
14	0x3f523625	0.8211387
15	0x3f1b56af	0.60679144
16	0x3ec256ba	0.37956792
17	0x3ed3295e	0.41242498
18	0xbef345d5	-0.47514215
19	0x3eae8a51	0.34089902
20	0x3f3ecf95	0.74535495
21	0x3b60799e	0.0034252177
22	0x3ea6d33b	0.3258303
23	0x3e854194	0.26026595
24	0x3e516dab	0.20451991
25	0x3e37854b	0.17921941
26	0xbf6c941e	-0.9241351
27	0xbf691351	-0.910451
28	0xbeaa9eb4	-0.33324206
29	0x3d91f858	0.07127446
30	0xbece5d39	-0.40305498
31	0x3e65802b	0.22412173

skconv.convs.0.0.weight f4 [32, 8, 3, 3, 3]
0	0x3caf69cc	0.021412753
1	0xbd101646	-0.03517749
2	0x3d84d203	0.06485369
3	0xbca4f99f	-0.02013856
4	0xbb1736fa	-0.002307354
5	0xbc093f33	-0.008376884
6	0xbd4b3ca7	-0.04961839
7	0x3be8fd6b	0.007110288
8	0x3d86be5c	0.06579277
9	0xbd6e9009	-0.05824283
10	0xbabda861	-0.0014469736
11	0xbbe755e9	-0.007059802
12	0x3cb08225	0.021546433
13	0xbd29255b	-0.04129539
14	0x3d6811d6	0.056657635
15	0xbd972f13	-0.073820256
16	0x3ce1b73d	0.027553195
17	0xbd43aeab	-0.047774
18	0x3d6ba934	0.05753441
19	0xbd193b8f	-0.037410315
20	0xbce284a0	-0.027651131
21	0xbc965cdc	-0.018354826
22	0x3d3dbda1	0.046323422
23	0xbbc29f81	-0.0059394245
24	0x3be64d5a	0.007028264
25	0xbb8c2db0	-0.0042779073
26	0x3a205eed	0.00061176607
27	0xbd3234d2	-0.043507405
28	0x3c257c11	0.0101003805
29	0xbd404454	-0.046940163
30	0xbcadd44c	-0.021219395
31	0xbc9a4469	-0.018831449
32	0xbd76f96d	-0.060296465
33	0x3c494af6	0.0122859385
34	0xbc66ccfa	-0.014086956
35	0xbd01f37a	-0.031726338
36	0xbd686900	-0.05674076
37	0x3c0d9d40	0.008643448
38	0x3d55f8f5	0.052239377
39	0xbca755f2	-0.020426724
40	0xbda29ce5	-0.079400815
41	0x3cd8ee33	0.02648077
42	0x3d6ba7d2	0.057533093
43	0xbd615c83	-0.055019867
44	0x3d466a58	0.04844126
45	0xbd51d851	-0.051231686
46	0xbbe71a7c	-0.0070527177
47	0x3cca8edd	0.024726326
48	0xbba77aee	-0.00511109
49	0xbd003d84	-0.031308666
50	0xbd71079a	-0.05884514
51	0xbd2fc703	-0.0429144
52	0x3ccfc2e0	0.025361478
53	0x3c1be0d3	0.0095140515
54	0x3d3058e9	0.04305354
55	0xbd54d5fb	-0.05196188
56	0x3d141023	0.0361482
57	0xbd6fa338	-0.058505267
58	0x3cfbdd3f	0.030745147
59	0xbd2d9293	-0.042376112
60	0xbd881316	-0.06644265
61	0xbcddafb7	-0.027061326
62	0x3cbe2a4e	0.023213532
63	0xbd763f9e	-0.060119264
64	0xbd4b6e73	-0.04966588
65	0x3aa9956d	0.0012938209
66	0x3d0495b2	0.032369323
67	0xbd745273	-0.059648942
68	0x3c4c4a14	0.0124688335
69	0xbc5f175c	-0.013616409
70	0x3d66b4d3	0.05632479
71	0x3cabe8ad	0.020984972
72	0x3cc2cda8	0.023779705
73	0xbd69334a	-0.05693368
74	0x3d6bea73	0.057596635
75	0xbd0d2a6d	-0.03446429
76	0x3b80eebf	0.0039347108
77	0x3d08854b	0.033330243
78	0x39376944	0.00017491454
79	0xbcb9d428	-0.022684172
80	0x3d12a3a9	0.03580061
81	0xbbee57b7	-0.00727364
82	0x3d7a2ffc	0.061080918
83	0x3c4d7104	0.012539152
84	0x3d275da2	0.04086078
85	0xbd854a7a	-0.06508346
86	0xbb891ad5	-0.004184107
87	0xbd71d69a	-0.05904255
88	0x3d6fa882	0.05851031
89	0xbd23e90a	-0.040017165
90	0xbd3647ff	-0.044502255
91	0x3d375750	0.044761002
92	0x3d2e3447	0.042530324
93	0xbd8715e1	-0.0659597
94	0xbc409a0b	-0.011755477
95	0xbcd5df33	-0.026107406
96	0xbd536203	-0.051607143
97	0xbc52a7bc	-0.012857374
98	0xbd2f5a38	-0.04281065
99	0xbb428c66	-0.0029685735
100	0xbd2e50c8	-0.042557508
101	0x3d5ca2f3	0.053866338
102	0xbd7691cf	-0.060197648
103	0xbd1ee1e8	-0.03878966
104	0x3d536e89	0.051619086
105	0xbd3b64b2	-0.045750327
106	0xbc5a058d	-0.0133069875
107	0xbcacf17d	-0.021111244
108	0xbd4e38ac	-0.050347015
109	0xbd5da8ad	-0.05411594
110	0x3d06e222	0.0329305
111	0x3d028235	0.031862456
112	0x3ca631c5	0.020287404
113	0xbc8d31b0	-0.017235607
114	0x3a095ee9	0.0005240278
115	0x3d1d438c	0.038394496
116	0x3d4969f5	0.049173314
117	0x3d6cc5da	0.057805873
118	0x3d2ec612	0.042669363
119	0xbca075da	-0.019587446
120	0x3c34b317	0.0110290265
121	0x3cba7fc2	0.022765998
122	0xbd1af6ac	-0.0378329
123	0xbbbf397c	-0.00583571
124	0xba5afcf2	-0.0008353732
125	0xbd432d99	-0.047650907
126	0xbcab4408	-0.020906463
127	0x3c227b15	0.00991704
128	0x3bfd7433	0.0077347993
129	0x3d1b47bb	0.037910204
130	0x3d901080	0.07034397
131	0xbc895eb9	-0.0167688
132	0x3d743dbf	0.0596292
133	0x3d2b43db	0.04181276
134	0xbc906e91	-0.017630847
135	0xbd1b7c82	-0.037960537
136	0x3b2443f9	0.002506493
137	0xbc1d0b40	-0.009585202
138	0xbc6318cd	-0.013860893
139	0x3d863181	0.06552411
140	0x3c8e0851	0.01733795
141	0x3d554aa1	0.052073125
142	0xbc9ea5cc	-0.019366167
143	0x396b9de6	0.00022470168
144	0xbd6c8429	-0.057743225
145	0x3d391094	0.045181826
146	0xbad7f157	-0.0016475123
147	0x3d23f9b4	0.040033057
148	0xbcd3cf71	-0.025855752
149	0x3cf5d916	0.030010741
150	0x3d3dbff4	0.04632564
151	0x3d468791	0.04846913
152	0xbd5d7181	-0.054063324
153	0xbd8bd896	-0.0682842
154	0xbc1f3e84	-0.009719495
155	0x3d61387c	0.05498551
156	0x3ccae06c	0.024765216
157	0xbc97da3c	-0.01853668
158	0xbd29ab9f	-0.041423436
159	0x3d7563ca	0.05990962
160	0xbd6e623e	-0.05819916
161	0x3d86dc0f	0.065849416
162	0xbd3db0f3	-0.04631133
163	0xbd4f4dc5	-0.050611276
164	0xbd7e0f14	-0.0620261
165	0x3ca9d07a	0.020729292
166	0x3d7304c7	0.059330728
167	0xbd11b296	-0.035570703
168	0x3ba1f4d4	0.004942516
169	0x3c52aca1	0.012858541
170	0xbcc70a0c	-0.024296783
171	0xbd60f3c6	-0.05491998
172	0x3c2e441e	0.010636358
173	0xbcfc8129	-0.030823307
174	0xbb9f9d32	-0.004871034
175	0x3c932131	0.017960163
176	0x3ceabbbc	0.028653972
177	0x3d4582bd	0.048220385
178	0x3c643417	0.013928435
179	0x3aa358c2	0.0012462365
180	0x3d402091	0.046906058
181	0x3ce6f802	0.028194431
182	0x3d4d3dd6	0.0501078
183	0x3d821ba4	0.06352928
184	0x3d299c18	0.04140863
185	0x3cc38e8f	0.023871688
186	0xbd298125	-0.041382927
187	0x3d972e65	0.07381896
188	0x3cc033f7	0.023462279
189	0xbd86ac2d	-0.06575809
190	0x3d80aeac	0.06283316
191	0xbd01a89d	-0.031654943
192	0x3d1a5100	0.037674904
193	0xbd75dca7	-0.060024884
194	0xbbd01952	-0.0063506747
195	0xbcfdf5ed	-0.031001056
196	0x3d448ce5	0.04798593
197	0x3bf68292	0.0075228894
198	0xbcaad521	-0.02085358
199	0xba8c0041	-0.0010681228
200	0xbcf40155	-0.029785791
201	0x3d152b4b	0.03641824
202	0x3d3651b4	0.044511512
203	0xbd844212	-0.064579144
204	0x3d60677b	0.054786187
205	0x3d070707	0.032965686
206	0xbd5a37a9	-0.053275738
207	0x3cf7377c	0.030177824
208	0x3cbe58c1	0.02323568
209	0xbd47afc8	-0.048751622
210	0xbd042e87	-0.032270934
211	0x3c97658e	0.018481042
212	0x3ccab310	0.024743587
213	0xbd375351	-0.04475719
214	0xbc482d2e	-0.012217803
215	0x3d848832	0.0647129
216	0xbd89236e	-0.06696211
217	0xbbebac29	-0.007192154
218	0xbd83305c	-0.06405708
219	0x3d843912	0.06456198
220	0xbac6d0ca	-0.0015168425
221	0xbc806b50	-0.01567617
222	0xbd44a444	-0.04800822
223	0x3bf10862	0.0073557356
224	0xbc8bf64a	-0.017085213
225	0x3c936954	0.01799456
226	0x3cbc0268	0.022950366
227	0x3d697c95	0.057003576
228	0x3d133b62	0.035945304
229	0x3d6da29b	0.0580164
230	0xbcb85f6f	-0.022506444
231	0xbce95e2b	-0.028487286
232	0xbcac69c4	-0.021046527
233	0x3bebd2f4	0.0071967784
234	0xbcfe1a23	-0.031018322
235	0x3c6f30b5	0.014599015
236	0xbd6fae44	-0.058515802
237	0xbcf529a5	-0.029927084
238	0xbd2bfcec	-0.041989252
239	0xbd8beec8	-0.06832653
240	0xbbcd43e7	-0.006264198
241	0xbd3bd3d9	-0.04585633
242	0x3d06f329	0.03294674
243	0x3ccc6794	0.024951734
244	0xbd77e767	-0.060523417
245	0xbc8eadde	-0.01741689
246	0xbd066463	-0.03281058
247	0x3c887228	0.016655996
248	0xbd0bfb03	-0.03417493
249	0xbcdc764c	-0.026911877
250	0xbd5ab351	-0.053393666
251	0x3d14f252	0.036363907
252	0xbd2b2057	-0.04177889
253	0xbba67689	-0.0050800485
254	0x3cdb5491	0.026773723
255	0x3c547f86	0.012969857

skconv.convs.0.0.bias f4 [32]
0	0x3d5ed980	0.054406643
1	0x3d2caf9a	0.042159654
2	0x3cb76870	0.022388667
3	0x3c8949e9	0.016758876
4	0x3d84e672	0.064892665
5	0xbce7989e	-0.028271016
6	0x3d043c38	0.03228399
7	0xbd65015e	-0.055909507
8	0xbcf0ac84	-0.029379137
9	0x3d75333e	0.05986332
10	0xbd810eaf	-0.06301629
11	0xbcaa2db8	-0.020773754
12	0x3bb685d6	0.0055701537
13	0xbc869d6b	-0.016432485
14	0xbcc26255	-0.023728529
15	0x3bdf9488	0.006823126
16	0xbd5a10c9	-0.053238664
17	0xbc98b06d	-0.018638814
18	0x3d5fb27a	0.054613568
19	0x3d1f351f	0.03886902
20	0x3d67db9c	0.05660592
21	0xbcd5d6b0	-0.026103348
22	0xbd17cd4b	-0.037061017
23	0x3d7f4ace	0.0623272
24	0xbd667d89	-0.056272063
25	0x3ce55ec5	0.027999291
26	0x3cbcfd3a	0.023069967
27	0xbb0b4930	-0.002125334
28	0xbbb32251	-0.0054667373
29	0xbc5abf63	-0.013351294
30	0x3d1f8c4a	0.03895215
31	0x3d7e93a4	0.06215252

skconv.convs.1.0.weight f4 [32, 8, 5, 5, 5]
0	0xbcc1358f	-0.023585109
1	0x3c0c222a	0.008553067
2	0x3c821140	0.015877366
3	0xbccac653	-0.024752771
4	0xbc9b457a	-0.018954027
5	0x3b9ce8be	0.004788487
6	0xbbf83e6b	-0.0075758
7	0xbbfe490f	-0.007760174
8	0x3b953d00	0.004554391
9	0xbbc09e79	-0.0058782664
10	0x3c533bbb	0.012892659
11	0xbcb7cbc8	-0.022436038
12	0x386a50c1	5.5865155e-05
13	0x3afdcd8a	0.0019363624
14	0xbcb07c4f	-0.02154365
15	0x3c4b7a7e	0.012419341
16	0xbcb1db9d	-0.021711165
17	0x3d00ed73	0.03147645
18	0xbbf7122d	-0.0075400085
19	0x3ca6061e	0.020266589
20	0xbc94d1fa	-0.01816653
21	0x3cbb6221	0.02287394
22	0x3b26b862	0.002543949
23	0xbc872840	-0.016498685
24	0xbc3a10f7	-0.011356584
25	0xbcbfa75e	-0.023395237
26	0xbd057515	-0.03258236
27	0x3b7b817c	0.003837674
28	0x3c900ab8	0.017583236
29	0x3d0b0773	0.03394265
30	0xbc48562b	-0.012227575
31	0x3ce83eaa	0.028350193
32	0x3c5bea66	0.013422584
33	0xbcbac937	-0.022801025
34	0xbae88a9b	-0.0017741503
35	0x3cfafe8c	0.030638956
36	0xbb7a4319	-0.0038186966
37	0x3bc26365	0.005932259
38	0xbc2a48a2	-0.010393294
39	0xbb422593	-0.0029624447
40	0xba49d88f	-0.0007699811
41	0x3cb441d4	0.022004046
42	0xbc9ac73e	-0.018893834
43	0xbc36cfb5	-0.01115792
44	0x3c9dfddf	0.019286094
45	0xbaca4aac	-0.0015433631
46	0x3c7a2392	0.01526727
47	0xbbfa371a	-0.007635963
48	0xbc2c7835	-0.010526706
49	0x3cd781ac	0.02630695
50	0x3c9361e6	0.017991018
51	0x3d09a631	0.033605758
52	0x3d055d34	0.03255959
53	0x3b51d4fe	0.0032017822
54	0xbc6eca9c	-0.014574673
55	0x3cee4093	0.029083526
56	0xbb093f4f	-0.0020942276
57	0x3cba4df3	0.022742247
58	0x3c9e7a32	0.019345377
59	0xbca06dca	-0.019583602
60	0x3c276c01	0.010218621
61	0x3c45f592	0.012082474
62	0xbb08cd83	-0.0020874448
63	0xbcaa02ce	-0.02075329
64	0xbca7371b	-0.020412019
65	0xbca7d3b9	-0.0204867
66	0x3c81c844	0.015842564
67	0x3c9b6ab2	0.018971775
68	0xbbbaed35	-0.005704547
69	0x3cada487	0.021196617
70	0x3cc73469	0.024316983
71	0xbc512b77	-0.0127667105
72	0x3bf2cfce	0.007410026
73	0x3bb3f267	0.005491543
74	0x3c488f52	0.0122412015
75	0xbcab7c04	-0.020933159
76	0x3833ce2e	4.2868945e-05
77	0x3cd7c712	0.026340041
78	0x3c43ae01	0.011943341
79	0x3ca9a11d	0.020706708
80	0x3cdaf95d	0.026730234
81	0xbc455496	-0.012044093
82	0xbbf9d4ee	-0.00762426
83	0xbc93e4de	-0.018053468
84	0xbc0ddac5	-0.008658116
85	0x3b8a8f47	0.004228506
86	0x3cbf9302	0.023385528
87	0x3a46a6c8	0.0007577953
88	0x3d183af9	0.037165616
89	0x3ca9bdd0	0.020720392
90	0xbbe8db14	-0.0071061943
91	0xbcd2a5b9	-0.025713788
92	0xbbee6660	-0.0072753876
93	0xbbc9e8bf	-0.0061617787
94	0x3d223939	0.039605353
95	0x3c09869c	0.00839391
96	0xbc1daed9	-0.009624206
97	0x3cb76309	0.02238609
98	0xbc9fe2bd	-0.019517297
99	0xbc621046	-0.013797825
100	0xba57df61	-0.0008234885
101	0x3baff3ef	0.0053696553
102	0xbcbdbe4f	-0.023162035
103	0x3c78a362	0.015175672
104	0x3d255f64	0.040374175
105	0x3ca34da8	0.01993449
106	0x3cfe3588	0.031031385
107	0xbb49fa08	-0.0030819196
108	0x376e58ad	1.4206552e-05
109	0xbbf45226	-0.007456082
110	0x3c9a0f55	0.018806139
111	0x3b8a9122	0.004228727
112	0x3bbcf743	0.0057667806
113	0x3cfdadcb	0.03096666
114	0xbce1285e	-0.027485069
115	0xbcc8df06	-0.024520408
116	0x3bfa30a3	0.0076351925
117	0xbcbfcb40	-0.023412347
118	0x3d09eb38	0.033671588
119	0x3cf2abed	0.029622996
120	0x3c46d40e	0.012135519
121	0x3bdda589	0.006764118
122	0x3c875dee	0.016524281
123	0x3c7e76ab	0.015531222
124	0x3b5efcaa	0.0034025111
125	0x3c175fa5	0.009239112
126	0x3a2a9c57	0.0006508282
127	0x3b38c977	0.0028196254
128	0xbcb3133d	-0.02185976
129	0x3c8fa831	0.017536255
130	0xbbba4ba2	-0.0056852857
131	0x3c031fbc	0.0080031715
132	0x3c8f10c2	0.017464045
133	0x3cdc03fc	0.026857369
134	0xbc858a3d	-0.016301269
135	0x3c8e47ac	0.01736816
136	0x3cf9ab59	0.030477213
137	0xbca2c495	-0.019869128
138	0x3caa9bcf	0.020826248
139	0xbbab5b9c	-0.0052294265
140	0xbc20570c	-0.009786379
141	0x3cbc5f4b	0.022994658
142	0xbc1cabf6	-0.009562483
143	0x398f4f1a	0.0002733402
144	0xbc81dbed	-0.01585194
145	0x3d040ab2	0.032236762
146	0xbb1135de	-0.0022157351
147	0xbcb8c704	-0.022555836
148	0xbc9853fe	-0.018594738
149	0x3d073766	0.033011816
150	0x3c9c5353	0.0190827
151	0xbbde2470	-0.006779246
152	0xba620794	-0.0008622345
153	0xba0334f8	-0.00050051464
154	0x3cd1fd6e	0.02563354
155	0x3ca687ce	0.020328429
156	0xbcb80c8d	-0.022466922
157	0xbb9a5f94	-0.004711101
158	0x3cc6a22a	0.024247248
159	0x3c75b5e0	0.014996976
160	0xbacb3d8e	-0.0015506016
161	0x3cf167cb	0.029468438
162	0x3b41c95e	0.0029569487
163	0x3c775eee	0.015098317
164	0xbc15c8de	-0.009142129
165	0xbc00524e	-0.007832123
166	0x3cf6463a	0.030062784
167	0x3b9b5371	0.0047401716
168	0xbca1cf89	-0.01975228
169	0x3b96e26e	0.0046046292
170	0xbb1dbbb5	-0.002406818
171	0xbca8e6c9	-0.02061786
172	0x3cec3fdf	0.02883905
173	0xbc4fb487	-0.012677318
174	0xbb599b21	-0.0033204036
175	0x3ca36577	0.019945843
176	0x3c44a1c2	0.012001457
177	0x3cb33dac	0.021879993
178	0xbca92abf	-0.020650266
179	0x3c68a85d	0.014200297
180	0x3c4c7108	0.012478121
181	0x3c9f3550	0.019434601
182	0xbced16c5	-0.028941521
183	0x3c15e827	0.009149588
184	0xbc6d9699	-0.014501237
185	0xbada4381	-0.0016652198
186	0x3a7e9a62	0.0009712336
187	0xbc49c280	-0.012314439
188	0x3b8a3629	0.004217882
189	0xbc9c0954	-0.019047417
190	0xbc83d2d9	-0.016091751
191	0x3cb7b519	0.022425221
192	0x3c6d5cde	0.014487473
193	0xbcccc80f	-0.02499774
194	0x3ccf33f2	0.025293324
195	0x3c74bc6c	0.014937501
196	0x3c277858	0.010221563
197	0xbc980acd	-0.018559838
198	0xbbc031c4	-0.0058653075
199	0x3cc206a6	0.02368481
200	0xbcafc690	-0.021456987
201	0xba392aaf	-0.00070635503
202	0xbc8ca94a	-0.017170567
203	0xbcc1c648	-0.023654118
204	0x3c5c5ff2	0.0134506095
205	0x3d035107	0.032059696
206	0x3cb8abaf	0.022542803
207	0x3cb03bbb	0.021512857
208	0xbc75bc4b	-0.014998506
209	0xbc67ffbd	-0.014160094
210	0xbcd2fb99	-0.025754737
211	0x3cdb5361	0.026773157
212	0x3a2f3f21	0.0006685127
213	0xbcac31ac	-0.02101978
214	0xbbbff457	-0.005857985
215	0x39d5934c	0.0004073627
216	0x3ced2074	0.028946139
217	0xbc052e82	-0.008128764
218	0xbc3c3b4c	-0.011488747
219	0xbc32c7d9	-0.010911905
220	0xbb60939a	-0.0034267665
221	0x3b8f3577	0.004370387
222	0xbcb837c6	-0.022487532
223	0x3c9e654b	0.01933541
224	0x3c04331e	0.008068828
225	0xbbe33308	-0.0069335736
226	0x3cafb823	0.021450108
227	0x3caa57e7	0.020793868
228	0xbc40723e	-0.011745987
229	0xbc7c1c55	-0.015387614
230	0xbbd779d4	-0.0065758023
231	0x3b99e2a7	0.0046962085
232	0xbbbfd88f	-0.005854673
233	0x3cb03c2e	0.02151307
234	0xbbd265ce	-0.0064208275
235	0xbb76a6f4	-0.0037636133
236	0xbb09f20d	-0.0021048815
237	0x3d0ea3de	0.034824245
238	0x3d161ef0	0.036650598
239	0x3d021bbf	0.031764742
240	0xbca4999a	-0.020092774
241	0x3cab4073	0.020904755
242	0xb9961d8b	-0.0002863224
243	0x3b513758	0.0031923857
244	0xbca34960	-0.019932449
245	0x3c6d784f	0.014494016
246	0xbc5562f0	-0.013024077
247	0xbc7835df	-0.015149563
248	0x3be23689	0.0069034738
249	0xbc6c7e9c	-0.014434483
250	0x3cd0ac3d	0.025472755
251	0xbb8ca038	-0.0042915605
252	0xbcdcba17	-0.026944203
253	0xbcdcc58a	-0.026949663
254	0x3c91cff4	0.017799355
255	0xbc724816	-0.014787694

skconv.convs.1.0.bias f4 [32]
0	0xbce0add9	-0.027426647
1	0xba28c2c6	-0.0006437715
2	0xbcd2b63d	-0.025721664
3	0x3c1f4ec7	0.009723372
4	0x3c2161c1	0.0098499665
5	0x3bd9f1b1	0.0066511263
6	0x3c92dc41	0.01792729
7	0x3ce0b1cb	0.027428528
8	0xbbcbfd38	-0.0062252544
9	0x3bd508dc	0.0065013003
10	0x3c982364	0.018571563
11	0x3caeacc8	0.021322623
12	0xbcb6d546	-0.022318494
13	0x3ba4a19d	0.0050241486
14	0x3c442128	0.011970796
15	0x3c9a8ebe	0.018866893
16	0xbb22f42c	-0.0024864776
17	0x3b6f15b9	0.0036481454
18	0xbc5734f4	-0.013135184
19	0xbc08b60e	-0.0083441865
20	0x3affa802	0.0019505026
21	0xbcabca66	-0.020970535
22	0x3ceac271	0.02865717
23	0xbc7c13d2	-0.015385585
24	0x3ccbe063	0.02488727
25	0xbc3eaeb8	-0.011638336
26	0x3b84430e	0.004036314
27	0x3c81d0fa	0.015846718
28	0x3cbf4d74	0.023352362
29	0x3c1d0619	0.009583973
30	0x3d0377ee	0.032096796
31	0x3b106953	0.0022035434

skconv.fc.0.weight f4 [32, 32, 1, 1, 1]
0	0x3e2c6b7b	0.16837876
1	0x3d42cd6c	0.047559187
2	0xbe2ba7ea	-0.16763273
3	0x3e005ab1	0.12534596
4	0x3e199e18	0.15001714
5	0xbdbd8f5b	-0.092558585
6	0xbd97f869	-0.07420427
7	0x3e033b7a	0.12815657
8	0xbe120133	-0.1425827
9	0xbdc778aa	-0.09739812
10	0xbd103ca6	-0.03521409
11	0xbe292704	-0.1651879
12	0x3dffe680	0.12495136
13	0x3e2d5617	0.16927372
14	0x3dc37a98	0.09544867
15	0x3e068d8e	0.13139936
16	0x3db75b12	0.08952917
17	0x3c351068	0.011051275
18	0x3ddb06a7	0.10694628
19	0xbe1e0c12	-0.15434292
20	0xbe2024de	-0.15639064
21	0x3e130a7e	0.14359471
22	0xbc90a46a	-0.017656524
23	0x3caea4b3	0.02131877
24	0x3d8bfe8a	0.06835659
25	0x3e1b9880	0.15194893
26	0x3dd52f9a	0.1040947
27	0xbd513a42	-0.05108095
28	0xbdff29e0	-0.12459159
29	0xbb66ba3e	-0.0035206224
30	0x3d7d181f	0.06179058
31	0xbd3b34e6	-0.045704745
32	0x3e24709d	0.16058584
33	0x3e17d7d8	0.14828432
34	0x3dc1adcd	0.09456978
35	0x3c731a11	0.014837758
36	0xbdda9063	-0.10672071
37	0xbe2d75d2	-0.16939476
38	0x3d0ca35c	0.03433548
39	0xbd9a3c1d	-0.07530997
40	0xbe152cda	-0.14567891
41	0x3dc02d9f	0.093837015
42	0xbd28d104	-0.041214958
43	0x3e087d54	0.13329059
44	0xbd30ee0f	-0.04319578
45	0xbb568e4a	-0.003273862
46	0xbe197a08	-0.14987957
47	0xbc7c7483	-0.015408638
48	0xbd802811	-0.06257642
49	0x3e00dc5d	0.12584062
50	0xbddad76a	-0.10685618
51	0x3c3c9cbe	0.01151198
52	0x3e310efd	0.17290874
53	0x3d960a1a	0.073261455
54	0xbdc1e7bc	-0.09468028
55	0xbdc59a24	-0.096485406
56	0xbdd7b4c7	-0.105325274
57	0x3dd6557c	0.104655236
58	0x3de19dab	0.11016401
59	0x3cf24132	0.029572103
60	0xbd7be695	-0.061499197
61	0x3e05de23	0.1307302
62	0xbdba7c3a	-0.091057256
63	0x3d7d4f37	0.061843123
64	0x3d86f6a3	0.06590011
65	0xbe23f379	-0.16010846
66	0x3d5a2c11	0.05326468
67	0x3dedf451	0.11618865
68	0x3dadcb23	0.08486011
69	0xbde26bae	-0.110556945
70	0xbdf482cc	-0.1193901
71	0xbd707b2a	-0.05871121
72	0xbe2e1e6e	-0.17003796
73	0xbe214421	-0.15748645
74	0x3e1da6c6	0.1539565
75	0x3db36809	0.087600775
76	0xbe0ab147	-0.13544188
77	0x3dff78ed	0.12474237
78	0x3e084aaa	0.13309732
79	0xbdb9622f	-0.0905193
80	0x3de90217	0.11377352
81	0x3d47765f	0.04869687
82	0xbdc64dc7	-0.096828036
83	0xbd29a445	-0.041416425
84	0x3e1f512a	0.15558305
85	0xbe0de491	-0.13856722
86	0xbe1e9e81	-0.15490152
87	0xbb4caf89	-0.0031232557
88	0xbdfecf05	-0.124418296
89	0x3af8e979	0.0018990479
90	0x3dae0a8d	0.08498106
91	0xbd4b46ed	-0.049628187
92	0xbe0b9283	-0.13630109
93	0x3d4aab1c	0.04947959
94	0x3c668199	0.014068984
95	0xbd6fd964	-0.05855693
96	0x3dddeb13	0.108358525
97	0x3e1b7b27	0.15183698
98	0xbe02965c	-0.1275267
99	0xbe2bafe2	-0.16766313
100	0xbcd14ed2	-0.02555028
101	0x3cb4c52c	0.022066675
102	0xbc2dc820	-0.010606796
103	0x3d83c6aa	0.064343765
104	0x3e063039	0.13104333
105	0xbcdb737b	-0.026788464
106	0x3cbd0a17	0.0230761
107	0x3e0cb30c	0.13740176
108	0xbe0f85c3	-0.1401587
109	0xbde8ef33	-0.11373749
110	0x3dc4e5c4	0.09614137
111	0x3c9f87d5	0.01947395
112	0xbd8b6be9	-0.068076916
113	0xbcfe1997	-0.031018062
114	0x3ce37629	0.027766304
115	0x3c52c24b	0.012863706
116	0xbe1534d2	-0.1457093
117	0x3e120f39	0.1426362
118	0x3d92da03	0.07170489
119	0xbd8e3618	-0.06943911
120	0xbd224802	-0.039619453
121	0x3d37b766	0.044852637
122	0xba691e03	-0.0008892717
123	0xbe06bfb1	-0.13159062
124	0xbd4ef0cb	-0.050522607
125	0x3d6e0a67	0.05811539
126	0x3e1f411e	0.15552184
127	0x3d745774	0.059653714
128	0x3d11a67f	0.035559174
129	0x3debd35c	0.11514923
130	0xbe120e51	-0.14263274
131	0xbd4acf30	-0.049513996
132	0xbe079a98	-0.13242567
133	0x3b5c0018	0.0033569392
134	0xbd93fe1c	-0.07226202
135	0x3dbaf9f3	0.09129705
136	0xbda3f759	-0.08006162
137	0x3e18fc5a	0.14940014
138	0x3da08d8f	0.078395
139	0xbcae5a09	-0.021283166
140	0xbe005406	-0.12532052
141	0xbd8077b6	-0.06272833
142	0xbe0cd737	-0.13753973
143	0x3e2a3844	0.16623026
144	0x3dbeb371	0.093115695
145	0xbe332587	-0.17494784
146	0x3cecfd02	0.028929237
147	0x3c8e4c31	0.017370315
148	0x3cd28027	0.025695873
149	0xbd180453	-0.0371135
150	0x3c80fa1b	0.01574426
151	0x3e0af6d9	0.13570727
152	0xbdb9ba47	-0.09068733
153	0xbd1a9ebb	-0.037749033
154	0xbd928180	-0.071536064
155	0x3d28065b	0.041021686
156	0xbe13f708	-0.14449704
157	0x3e0d2b2c	0.13786
158	0x3e06f0c6	0.13177785
159	0xbcd983c2	-0.026552085
160	0xbaaa7b71	-0.0013006759
161	0x3e2b372c	0.16720265
162	0x3e2b4368	0.16724932
163	0xbc9fc7d9	-0.019504474
164	0x3e24d340	0.1609621
165	0xbd173ac2	-0.03692127
166	0x3de9c86b	0.1141518
167	0xbe1f5af3	-0.15562038
168	0xbe2b2d1a	-0.16716424
169	0x3e0500b5	0.12988551
170	0xbe226052	-0.15857056
171	0x3d947208	0.07248312
172	0x3db6de26	0.0892909
173	0x3de177f8	0.1100921
174	0x3dcb9899	0.09941215
175	0xbe32715f	-0.1742606
176	0x3d1ded92	0.038556643
177	0xbce5b6f6	-0.028041344
178	0x3dee4374	0.116339594
179	0xbe290b98	-0.16508329
180	0x3dfaf464	0.12253645
181	0x3d9853ee	0.07437883
182	0xbd172a13	-0.03690536
183	0xbd0a0946	-0.03370025
184	0xbdc7dd74	-0.09759036
185	0xbe0ba4d4	-0.13637096
186	0xbdc8766a	-0.09788211
187	0x3d00fb39	0.031489585
188	0xbe0f9cb7	-0.14024626
189	0x3d8c1360	0.06839633
190	0x3cc96de9	0.024588542
191	0xbd335107	-0.043778446
192	0xbbab506c	-0.005228093
193	0xbe25bc8a	-0.16185203
194	0x3e020d20	0.1270032
195	0x3db4bc7d	0.08825014
196	0x3dd85e46	0.10564856
197	0xbd73d2dd	-0.059527267
198	0x3d847406	0.06467442
199	0xbdcbdef1	-0.09954632
200	0x3d944041	0.07238818
201	0xbdfe4210	-0.12414944
202	0x3d87c449	0.06629235
203	0xbe32cf79	-0.17461957
204	0xbe32e30b	-0.17469423
205	0xbde35efa	-0.111021
206	0xbdbe6627	-0.09296828
207	0xbc5018f6	-0.012701264
208	0x3e1a133c	0.150464
209	0x3e20b47f	0.15693854
210	0xbe2940dd	-0.1652865
211	0x3dcac4b5	0.099008
212	0x3ae3a43a	0.0017367669
213	0x3e2dba2f	0.16965555
214	0xbd983d5d	-0.07433579
215	0x3df9a952	0.121904984
216	0xbda34c77	-0.07973569
217	0x3d024e57	0.031812992
218	0x3e1deb62	0.15421823
219	0x3e34316a	0.17596975
220	0x3e09da16	0.134621
221	0x3dc04a13	0.093891285
222	0x3e17d52a	0.1482741
223	0xbdcec611	-0.10096372
224	0xbd3d6d76	-0.04624697
225	0x3e1b2672	0.15151384
226	0x3dd91ff7	0.106018
227	0xbd005c4f	-0.031338032
228	0xbdca8454	-0.09888521
229	0xbc8dee70	-0.01732561
230	0x3e166f06	0.1469079
231	0xbcdfd46b	-0.027322968
232	0x3da092f6	0.078405306
233	0xbe1ca30a	-0.1529657
234	0x3d0c03a2	0.034183152
235	0xbd8798d8	-0.066209495
236	0x3cd65b8d	0.026166702
237	0x3dac6d5e	0.08419298
238	0xbda78585	-0.08179764
239	0x3defb075	0.117035784
240	0x3ce6af15	0.028159657
241	0x3d613aaa	0.054987587
242	0x3da8d58b	0.08243855
243	0xbe132466	-0.14369354
244	0x3d9dd07c	0.07705781
245	0x3e1c356d	0.15254755
246	0x3dfa1885	0.12211708
247	0xbc9ffc3b	-0.019529453
248	0x3dacdeeb	0.08440956
249	0x3cb12d92	0.021628175
250	0x3dbc0221	0.091800936
251	0xbd16fa2a	-0.03685967
252	0xbd4f40e6	-0.050599
253	0xbe059744	-0.13045985
254	0x3e2122e0	0.1573596
255	0x3dac3dd1	0.08410228

skconv.fc.2.weight f4 [64, 32, 1, 1, 1]
0	0x3dc59ac5	0.096486606
1	0x3dd5eddd	0.104457594
2	0x3dd23c51	0.10265411
3	0x3d27cefd	0.040968884
4	0xbd51787e	-0.0511403
5	0x3dfccbe3	0.12343576
6	0x3de1c555	0.11023966
7	0x3dcd8b01	0.100362785
8	0xbbe1392d	-0.006873271
9	0x3e00c340	0.12574482
10	0xbc8e41f9	-0.017365443
11	0x3d9e729e	0.07736705
12	0xbd729a62	-0.059229262
13	0xbdeb667a	-0.11494155
14	0xbdbbcdaa	-0.09170087
15	0xbe2216f8	-0.15829074
16	0xbe0e12f9	-0.13874425
17	0x3e25ae52	0.16179779
18	0xbdcfa42a	-0.10138734
19	0x3dc063bd	0.093940236
20	0x3df1a1ef	0.117984645
21	0x3e0cf665	0.13765867
22	0x3d1280cc	0.03576736
23	0x3c635a88	0.013876565
24	0x3b53a3ef	0.0032293757
25	0xbd882c06	-0.06649022
26	0x3d7194c0	0.05897975
27	0x3d619bd1	0.05508024
28	0x3e2a0146	0.16602048
29	0x3e03374b	0.12814061
30	0xbde588d6	-0.1120774
31	0xbdd0b061	-0.101898916
32	0x3d12eb4b	0.035868924
33	0xbdd72c76	-0.10506527
34	0xbe0bf261	-0.13666679
35	0xbb949749	-0.004534636
36	0x3ddbcac9	0.107320376
37	0xbddc1e31	-0.10747946
38	0x3e1159d9	0.1419443
39	0x3dfcd978	0.12346166
40	0x3ddbc558	0.10731
41	0xbdd8fd9f	-0.105952494
42	0x3cf94870	0.030430049
43	0xbc0aa129	-0.008461275
44	0x3d901c17	0.07036608
45	0x3c0c6133	0.008568096
46	0x3d891b1c	0.06694624
47	0xbdb1dbcc	-0.08684501
48	0x3df94607	0.1217156
49	0x3e00d896	0.12582621
50	0xbd933ab7	-0.07188933
51	0x3cf952e9	0.030435042
52	0xbcf823a5	-0.030290434
53	0x3d50038a	0.050784625
54	0x3e02540c	0.12727374
55	0xbe14c4c6	-0.14528188
56	0xbdc9193d	-0.09819267
57	0x3c3680b4	0.011139084
58	0xbd103233	-0.035204124
59	0x3cd89a6e	0.026440825
60	0x3cc03c7c	0.023466341
61	0xbdc0b592	-0.09409632
62	0x3cc4f4e0	0.024042547
63	0xbd228f5b	-0.039687496
64	0xbe2480a8	-0.16064703
65	0x3dc2aa03	0.095050834
66	0x3d8bce5a	0.06826468
67	0x3d93299f	0.07185673
68	0xbe252eb1	-0.16131093
69	0xbe10d97d	-0.14145465
70	0xba8f265a	-0.0010921464
71	0x3e0c81b7	0.13721357
72	0xbd439e62	-0.047758467
73	0x3e17d2b5	0.14826472
74	0x3e1f7aa3	0.15574126
75	0x3dfc0e66	0.12307434
76	0xbd49b8b1	-0.0492484
77	0xbddd01e5	-0.10791377
78	0xbe2ce47f	-0.1688404
79	0xbdf5cd2d	-0.12002025
80	0x3e07b2fc	0.13251871
81	0x3e091d2c	0.13390034
82	0xbd8ee9ac	-0.06978163
83	0xbe15b73e	-0.14620683
84	0xbdbdd62b	-0.09269365
85	0xbcacad6e	-0.021078791
86	0xbe20b15a	-0.15692654
87	0x3d23173c	0.03981708
88	0x3d285e39	0.041105483
89	0xbc840dfd	-0.016119951
90	0xbd724735	-0.05914994
91	0x3e0b0859	0.13577403
92	0x3c38b5a5	0.011273776
93	0x3cdd0c8d	0.026983524
94	0xbddaee9c	-0.106900424
95	0xbe2c2cf8	-0.16814029
96	0xbdd791a6	-0.10525827
97	0x3e0d771f	0.13814972
98	0x3e10dedc	0.14147514
99	0x3d8e288d	0.06941328
100	0x3d14d8f4	0.036339715
101	0xbdfc7790	-0.12327492
102	0xbd926549	-0.07148225
103	0xbdc843c6	-0.09778552
104	0x3e02d572	0.12776735
105	0xbe1da8cd	-0.15396424
106	0xbd7179ef	-0.058954176
107	0x3e11fc8f	0.142565
108	0xbe1b61b3	-0.15173988
109	0x3e0158bf	0.1263151
110	0xbe296fba	-0.16546527
111	0xbddd4026	-0.10803251
112	0xbd82b67f	-0.063824646
113	0x3df81a95	0.12114445
114	0x3d9834a2	0.07431914
115	0xbc88561e	-0.016642626
116	0xbc42d437	-0.011891416
117	0x3e1501c3	0.14551453
118	0xbd200408	-0.039066344
119	0xbe151d46	-0.14561948
120	0xbe21e98a	-0.15811744
121	0x3db965b5	0.09052602
122	0x3dec8f30	0.11550748
123	0xbe089e9c	-0.13341755
124	0xbd9bb397	-0.076026134
125	0xbd062cea	-0.032757677
126	0xbc231b0d	-0.00995518
127	0xbdfb0585	-0.12256912
128	0xbde2d527	-0.11075812
129	0x3c0b906f	0.008518322
130	0xbd33bb02	-0.043879516
131	0xbb484b84	-0.003056259
132	0x3c927509	0.017878072
133	0xbdc7dea0	-0.09759259
134	0x3e03bf32	0.12865904
135	0x3d589e06	0.052885078
136	0x3d8b6ad5	0.06807486
137	0xbd13f82e	-0.036125354
138	0xbd764b24	-0.060130253
139	0xbcaa378b	-0.020778438
140	0xbe22164c	-0.15828818
141	0x3df8cb22	0.121481195
142	0xbda9db21	-0.08293749
143	0xbdcadf15	-0.09905831
144	0xbe2d1fd1	-0.16906668
145	0x3e1f5830	0.15560985
146	0xbe050eb7	-0.12993895
147	0xbe0f013e	-0.13965318
148	0x3d6802ec	0.05664341
149	0xbdd231a1	-0.10263372
150	0x3e0177dd	0.1264338
151	0xbe33276e	-0.1749551
152	0xbdce3832	-0.10069312
153	0xbce6c8bb	-0.028171888
154	0xbe13ebd4	-0.1444543
155	0xbd18819e	-0.037232988
156	0x3df4accf	0.11947023
157	0xbccc827a	-0.02496456
158	0x3cd4a30a	0.02595665
159	0x3d9fb761	0.077986486
160	0x399b4aad	0.00029619542
161	0x3e0478a4	0.12936646
162	0x3d99b5e1	0.07505394
163	0xbd99a46e	-0.075020656
164	0x3e1bc954	0.1521352
165	0x3a302ef7	0.00067208655
166	0xbe0ea987	-0.13931857
167	0xbe05e8b4	-0.1307705
168	0xbd9badb5	-0.07601491
169	0xbddaac1e	-0.1067736
170	0x3d340f14	0.043959692
171	0xbe0b8303	-0.13624196
172	0x3dca3164	0.09872702
173	0x3e2751fb	0.16339867
174	0xbc9b8cf1	-0.018988105
175	0x3dd8f1c2	0.10592987
176	0x3e100f2d	0.14068289
177	0x3cc75269	0.024331288
178	0xbe267aac	-0.16257733
179	0xbd914139	-0.07092518
180	0x3e0cd87e	0.1375446
181	0x3e2b3f3a	0.16723338
182	0x3df0cfff	0.11758422
183	0xbe1e78b0	-0.15475726
184	0x3da8ee0e	0.0824853
185	0xbe27df66	-0.16393813
186	0xbe192f30	-0.14959407
187	0xbd40889d	-0.047005285
188	0xbdb2a08a	-0.08722027
189	0x3d31404d	0.043274213
190	0x3dd3d498	0.103432834
191	0x3d00bb6b	0.031428736
192	0xbd8a679b	-0.067580424
193	0x3ccba95f	0.024861036
194	0xbdb81eb0	-0.08990228
195	0xbe08d4e3	-0.1336246
196	0x3d8b54d6	0.068032905
197	0xbd3dfd13	-0.04638393
198	0x3e29adaf	0.16570161
199	0x3df7a3db	0.120918
200	0x3e09e26a	0.13465276
201	0xbd95f7e5	-0.07322673
202	0xbd9ac7bd	-0.07557628
203	0xbdd7dc40	-0.10540056
204	0xbd1219f7	-0.035669293
205	0xbd72e1b9	-0.059297297
206	0xbdc4b4a7	-0.09604769
207	0xbe08276e	-0.13296291
208	0x3d9648af	0.07338082
209	0x3e0987df	0.13430737
210	0x3e1c17a0	0.15243387
211	0xbe24a1f6	-0.16077408
212	0xbdc9d645	-0.09855322
213	0xbe155b6f	-0.1458566
214	0xbe03e256	-0.12879309
215	0xbd3bdccf	-0.045864876
216	0xbe0f17a1	-0.13973857
217	0x3d80eb66	0.06294899
218	0x3d521674	0.051290944
219	0xbe16a211	-0.14710261
220	0xbcd7519e	-0.026284035
221	0x3e09399f	0.13400887
222	0x3e27ada3	0.16374831
223	0xbded6a12	-0.11592497
224	0x3d97617e	0.07391642
225	0xbdeed022	-0.11660792
226	0xbe2c83e7	-0.16847192
227	0x3db8f5e0	0.09031272
228	0xbe13d57b	-0.14436905
229	0x3d8df531	0.06931532
230	0x3a3fcb91	0.00073164055
231	0x3b33482c	0.002735625
232	0xbd3f44cf	-0.04669648
233	0xbdfe3243	-0.124119304
234	0x3e1bff68	0.15234149
235	0x3e023c0e	0.12718222
236	0xbe28e1a3	-0.16492324
237	0xbdcc7bca	-0.099845484
238	0xbe030112	-0.12793377
239	0x3c717c0c	0.014739048
240	0x3d274c39	0.040844176
241	0x3e051e30	0.12999797
242	0x3df8f865	0.121567525
243	0x3cebf8df	0.028805194
244	0xbdeebda7	-0.11657267
245	0x3ca37d81	0.019957306
246	0xbe37f894	-0.17965919
247	0x3d922a91	0.07137025
248	0xbc1d5da4	-0.009604845
249	0xbcba6d4e	-0.022757199
250	0xbda51e28	-0.080623925
251	0x3e0ac225	0.13550623
252	0x3ce15c8f	0.027509956
253	0xbdd6c506	-0.10486798
254	0xbdcc8fe9	-0.09988386
255	0xbe15a451	-0.14613463

skconv1.convs.0.0.weight f4 [32, 8, 3, 3, 3]
0	0xbcce92bf	-0.025216458
1	0x3ca1662a	0.019702036
2	0xbd297463	-0.04137076
3	0xbcb972e8	-0.0226378
4	0x3c8ddf69	0.017318444
5	0xbd38eca8	-0.045147568
6	0xbc55bd45	-0.013045614
7	0xbd5bf3e2	-0.05369938
8	0x3ced0f47	0.028937949
9	0xbcb5d6eb	-0.022197207
10	0x3c06ee6a	0.008235553
11	0x3d794c44	0.06086375
12	0xbc0d2333	-0.008614349
13	0x3cb66b2f	0.022267906
14	0x3d4d0589	0.050054107
15	0x3d7ec2f8	0.062197655
16	0x3d693278	0.056932896
17	0x3cc4d7e9	0.024028735
18	0x3c27db9b	0.010245229
19	0xbc8717e4	-0.016490884
20	0x3ce32077	0.027725441
21	0xbd63ca72	-0.05561299
22	0x3cbb9114	0.022896327
23	0xbc3b3cdf	-0.011428087
24	0xbbd61cfe	-0.006534218
25	0xbd170427	-0.036869194
26	0x3d22a79d	0.03971063
27	0x3d615bd3	0.05501921
28	0x3bc424ae	0.005985818
29	0xbd692e76	-0.056929074
30	0x3d396beb	0.045268934
31	0x3c7e5989	0.0155242765
32	0x3d160eed	0.036635328
33	0xbd3b3808	-0.045707732
34	0x3c533601	0.0128912935
35	0xbce8a2a0	-0.028397858
36	0x3c04abc1	0.00809759
37	0xbd40376f	-0.046927866
38	0xbc2b3a8c	-0.01045097
39	0xbd836aaa	-0.06416829
40	0x3c6b0794	0.0143450685
41	0xbcd29c35	-0.025709251
42	0x3cb8eb33	0.02257309
43	0x3d468d27	0.048474457
44	0xbd424f55	-0.04743894
45	0x3cb9d930	0.02268657
46	0xbce9a859	-0.028522657
47	0xbd5368a4	-0.051613465
48	0xbcdb21d5	-0.02674953
49	0xbccbd353	-0.02488104
50	0xbd211f11	-0.039336268
51	0x3d3e8c23	0.046520364
52	0xbcb037ad	-0.021510923
53	0xbd5f695c	-0.054543838
54	0xbd2f5200	-0.04280281
55	0x3d594d9e	0.053052537
56	0x3ccb1914	0.024792232
57	0xbd27b9b8	-0.0409486
58	0xbc805f58	-0.015670463
59	0xbc979b8c	-0.018506788
60	0x3cae67f1	0.021289797
61	0xbd760eb4	-0.060072616
62	0x3d417d32	0.047238536
63	0xbd4697ac	-0.04848449
64	0xbd15387c	-0.03643082
65	0x3b984166	0.004646468
66	0x3d271106	0.04078772
67	0x3d59c0fd	0.053162564
68	0x3d4140b4	0.047180846
69	0xbc9a5fc4	-0.018844493
70	0x3c7245d4	0.014787156
71	0xbc14bc1e	-0.009078054
72	0x3d75a99a	0.059976198
73	0xbd04f5ef	-0.032461103
74	0xbc323330	-0.010876462
75	0xbc1a3edc	-0.009414401
76	0x3bafdf13	0.0053671687
77	0xbca4e017	-0.020126386
78	0x3bca530c	0.0061744507
79	0x3d794933	0.060860824
80	0x3cf80ef4	0.030280568
81	0xbc6baae6	-0.014384007
82	0x3c1c8587	0.00955332
83	0xbbb35afb	-0.005473492
84	0xbd48636e	-0.04892295
85	0xbd0ffc17	-0.03515252
86	0x3d1f9fab	0.03897063
87	0xbd14c7fb	-0.03632353
88	0xbd57e4dd	-0.052708495
89	0xbd0469f9	-0.032327626
90	0x3cb0b05f	0.021568475
91	0x3d56b251	0.05241615
92	0x3d309ce6	0.04311838
93	0xbceb8b51	-0.028752955
94	0x3ca8204f	0.020523218
95	0x3d673758	0.056449264
96	0xbc86a9a2	-0.01643831
97	0x3cc2f66f	0.02379915
98	0x3d374fe5	0.044753928
99	0x3d4c28e7	0.049843695
100	0x3bc86ad1	0.006116249
101	0x3d4cd3f8	0.050006837
102	0xbcfeaa96	-0.031087201
103	0x3d6fa319	0.05850515
104	0xbd090980	-0.033456326
105	0x3c6d8ac8	0.01449842
106	0x3d235a6c	0.039881155
107	0xb9d3aceb	-0.0004037389
108	0xbd6dd654	-0.058065727
109	0xbd10d52c	-0.035359547
110	0x3cfe1cf0	0.031019658
111	0xbd74148c	-0.059589908
112	0xbc8a1904	-0.016857632
113	0x3aed53b9	0.0018106616
114	0x3ca06235	0.019578079
115	0x3cca2133	0.024674034
116	0x3cccb1f4	0.024987198
117	0xbd14bdd0	-0.03631383
118	0xbd1d287e	-0.038368694
119	0x3d0c6cbb	0.03428338
120	0xbd2bacd5	-0.041912872
121	0xbc8d7c30	-0.017271131
122	0xbbcc18f6	-0.0062285615
123	0xbcd73df8	-0.026274666
124	0xbc430bf2	-0.011904703
125	0x3d5b1907	0.053490665
126	0xba250c63	-0.0006296096
127	0xbd4c2c30	-0.049846828
128	0xbcd61362	-0.02613229
129	0x3c15a695	0.0091339545
130	0x3d097c95	0.033566076
131	0x3cb5e9a6	0.022206139
132	0x3c4aa40b	0.012368212
133	0xbc39eb7b	-0.011347647
134	0x3d18ca34	0.03730221
135	0xbcad3c81	-0.021147015
136	0x3c61b1ed	0.013775331
137	0xbcea5ed4	-0.02860967
138	0x3d0942d2	0.03351099
139	0x3d0a6e1f	0.033796426
140	0x3d4ed476	0.050495587
141	0xbd84faa6	-0.0649312
142	0xbd6b6710	-0.057471335
143	0xbce58436	-0.028017145
144	0x3cbfb276	0.023400526
145	0x3cadff50	0.021239907
146	0x3bdc9aa4	0.006732302
147	0x3c0c4b2f	0.008562847
148	0x3d50c922	0.050973065
149	0x3c2486fd	0.010041949
150	0xbc93ca13	-0.018040692
151	0xbcc72f9a	-0.02431469
152	0x3d89f19f	0.06735539
153	0x3d4a96cd	0.04946022
154	0x3c63d828	0.013906516
155	0xbd4801c0	-0.048829794
156	0xbbb84dc1	-0.0056245034
157	0x3d1b2b5c	0.037883148
158	0xbb60508b	-0.0034227695
159	0x3d30e763	0.043189418
160	0xbd0a36d1	-0.033743683
161	0x3b5e183b	0.0033888954
162	0x3b3dc33e	0.0028955485
163	0x3c70cab8	0.014696769
164	0xbd80ecd6	-0.06295173
165	0xbd3ffab0	-0.046869934
166	0xbced03dc	-0.028932504
167	0xbc72b87a	-0.01481449
168	0xbca8e312	-0.020616088
169	0x3ccdba8d	0.025113368
170	0x3c849707	0.016185297
171	0x3c48aadb	0.012247766
172	0x3d1dd414	0.03853233
173	0x3caca6fe	0.021075722
174	0xbcd6026e	-0.026124205
175	0x3bcffa14	0.0063469503
176	0x3c3e18a5	0.011602555
177	0x3d7f1d3a	0.062283732
178	0xbd58a83a	-0.05289481
179	0xbd3f204b	-0.046661656
180	0xbd1cc295	-0.038271505
181	0xbd2f72e2	-0.04283417
182	0xbc6957aa	-0.014242092
183	0xbd4f27d4	-0.050575092
184	0xbd9d632d	-0.07684932
185	0x3c81e233	0.01585493
186	0x3d81d6c2	0.0633979
187	0xbd49c86b	-0.0492634
188	0x3aab7920	0.0013082363
189	0x3d841244	0.064487964
190	0x3c37cf5c	0.011218872
191	0x3d6123ff	0.05496597
192	0xbc4a3c62	-0.012343498
193	0xbd429b2e	-0.047511272
194	0xbb83f7bd	-0.0040273354
195	0x3d434372	0.047671743
196	0x3d3a4095	0.045471746
197	0xbd6fad58	-0.058514923
198	0x3b22a4dd	0.0024817504
199	0x3d5b0e3b	0.053480368
200	0x3c8cb060	0.017173946
201	0xbd32bdb7	-0.043637957
202	0x3cfd6eab	0.03093656
203	0xbd25164a	-0.04030446
204	0x3d59048e	0.05298286
205	0xbd5d2b49	-0.053996358
206	0xbcf84562	-0.030306522
207	0xbbdec339	-0.0067981747
208	0x3d856f4c	0.06515369
209	0x3d2e28ea	0.042519487
210	0xbcf34380	-0.029695272
211	0x3ca04ab3	0.01956687
212	0x3d2b757d	0.041860092
213	0xbd588ce0	-0.052868724
214	0x3d7337f9	0.05937955
215	0xbd4834df	-0.048878547
216	0xbd0371d3	-0.032090973
217	0xbb86d5b1	-0.0041148295
218	0xbd4e0ffa	-0.050308205
219	0xbd1d35ff	-0.038381573
220	0xbcadada2	-0.021200959
221	0x3c7cbdc4	0.015426103
222	0x3d76f0d6	0.060288273
223	0xbd734471	-0.059391443
224	0xbd1195fb	-0.035543423
225	0x3bb0572a	0.0053814845
226	0xbca4bce5	-0.020109603
227	0x3d33e4f2	0.04391951
228	0xbd890196	-0.066897556
229	0x3c22ac6c	0.009928804
230	0xbd0f504d	-0.03498869
231	0xbc04cf83	-0.008106115
232	0xbc902a5a	-0.01759832
233	0xbcdf3b9f	-0.02725011
234	0x3c9af2ba	0.01891457
235	0x3cf6cc89	0.030126827
236	0xbbd07a05	-0.006362202
237	0xbd2d9ad1	-0.042383973
238	0xbb0113e1	-0.0019695687
239	0xbd4cb6c2	-0.04997898
240	0x3b53efb5	0.0032338921
241	0x3d86cd3a	0.065821126
242	0xbd00f52a	-0.031483807
243	0xbc2baab4	-0.0104777105
244	0xbc1f48e5	-0.009721969
245	0x3cb71c1d	0.022352273
246	0x3d244686	0.04010632
247	0xbd4f0619	-0.050542925
248	0x3d5b1848	0.053489953
249	0xbc8038ec	-0.015652142
250	0x3c926199	0.017868804
251	0x3d469bef	0.048488554
252	0xbcb56f31	-0.022147747
253	0x3d111968	0.03542462
254	0x3d054297	0.03253421
255	0x3d22789e	0.03966581

skconv1.convs.0.0.bias f4 [32]
0	0xbd38e19d	-0.045137037
1	0x3ccf9400	0.025339127
2	0x3d5d140b	0.053974193
3	0x3c796c1d	0.01522353
4	0xbca7fd0c	-0.020506404
5	0x3ccffd37	0.025389297
6	0xbc2684f8	-0.010163538
7	0xbb8bd262	-0.004267023
8	0x3aa33bde	0.0012453755
9	0x3cd63b5f	0.026151357
10	0x3d707d24	0.058713093
11	0xbd5b558a	-0.053548373
12	0xbd89431e	-0.06702255
13	0x3d20eb7f	0.039287087
14	0x3c68586e	0.0141812395
15	0x3c7c104b	0.015384744
16	0x3d379b8e	0.044826083
17	0xbcf8c625	-0.03036792
18	0xbd52cd9b	-0.051465612
19	0xbd022392	-0.031772204
20	0x3d32063f	0.043462988
21	0x3d24ff21	0.040282372
22	0xbc96c1aa	-0.018402893
23	0x3d5ed0e7	0.054398444
24	0x3cf289d1	0.029606732
25	0x3cb6bd7f	0.022307156
26	0xbd837d77	-0.06420415
27	0x3b9de938	0.0048190616
28	0xbd5278a5	-0.051384587
29	0x3bbabb8a	0.005698626
30	0xbd0e3642	-0.034719713
31	0x3cb8b5e2	0.022547666
